iris_classifier_state.pt (torch, 1951 bytes, 4 tensors)

layer1.weight f4 [16, 4]
0.43883392 -0.6443514 1.6208937 1.23381 -0.19661614 0.017943343 -1.9350781 -1.173112
0.071272135 0.77632797 0.99241257 0.6022988 0.15815303 0.27094996 1.5633216 1.1334008
0.37150642 -1.1572524 2.233581 0.8662595 0.025283424 -0.17222472 1.7129391 0.8439491
0.6522139 -1.6243584 2.8040087 0.5054104 -0.26516166 0.6990787 -1.8499033 -0.9854662
0.09227733 0.3410762 -2.3918865 -1.285957 0.1289711 1.3392087 -0.9863452 -0.29263303
0.5089475 -1.2892168 2.1557608 0.8017215 -0.1301356 0.07079426 -2.076013 -1.1772656
-0.1489362 0.07708737 -2.275243 -1.490313 0.41123646 -1.3311014 2.2003038 0.847327
0.81965363 -1.9933149 2.8265054 0.21170367 0.2932203 -1.2512984 2.4584394 0.73639673
00000000: d7ae e03e 37f4 24bf 7279 cf3f 7ced 9d3f
00000010: be55 49be ebfd 923c a4b0 f7bf 8928 96bf
00000020: 20f7 913d 6ebd 463f c00e 7e3f 4130 1a3f
00000030: def2 213e f4b9 8a3e ec1a c83f 4713 913f
00000040: 1736 be3e d920 94bf fef2 0e40 2fc3 5d3f
00000050: 2f1f cf3c ad5b 30be 9741 db3f 0c0d 583f
00000060: 7df7 263f faea cfbf e174 3340 9362 013f
00000070: 45c3 87be d2f6 323f a2c9 ecbf 8347 7cbf
00000080: e6fb bc3d 8aa1 ae3e ab14 19c0 3d9a a4bf
00000090: 0011 043e 316b ab3f 1e81 7cbf ffd3 95be
000000a0: 624a 023f 0e05 a5bf fcf7 0940 9f3d 4d3f
000000b0: 4442 05be 95fc 903d 66dd 04c0 a4b0 96bf
000000c0: bb82 18be fcdf 9d3d 959d 11c0 94c2 bebf
000000d0: 968d d23e 8861 aabf c7d1 0c40 6cea 583f
000000e0: d2d4 513f f124 ffbf 77e5 3440 d9c8 583e
000000f0: f920 963e 8c2a a0bf 1257 1d40 7f84 3c3f

layer1.bias f4 [16]
-0.35636503 0.41754842 -0.019766275 -0.14296815 -0.23746975 -0.38534194 0.62587476 0.450896
0.27639368 -0.0463625 -0.020409947 0.47615033 0.41865706 0.39612982 -0.00068177626 0.66438437
00000000: 7a75 b6be e8c8 d53e e2ec a1bc 3e66 12be
00000010: 452b 73be 8a4b c5be 5439 203f d7db e63e
00000020: 7983 8d3e 9be6 3dbd c332 a7bc fac9 f33e
00000030: 385a d63e 87d1 ca3e 3bb9 32ba 1815 2a3f

layer2.weight f4 [3, 16]
-1.237616 0.8782205 -0.15775622 -0.5758642 -1.4718279 -0.7884628 -1.6101408 1.471599
0.87865734 0.69006115 -1.2088531 0.7857195 0.9152265 -1.0943774 -1.5999305 -1.7401457
-0.19254385 0.26511896 -0.371703 -0.45005527 0.09968832 -0.39529818 0.18176347 0.09779228
0.14626448 -0.28282413 0.19954766 0.2725259 0.5516806 -0.024596281 0.15366371 0.08691199
0.88705796 -1.3593079 0.34729412 0.758398 0.8522078 0.71084726 0.22885408 -1.4213672
-1.4425786 -0.19464001 0.7453015 -1.3709003 -1.166654 0.30910188 0.14462356 0.54616165
00000000: 336a 9ebf 0fd3 603f d98a 21be d66b 13bf
00000010: db64 bcbf b3d8 49bf 1819 cebf 5b5d bc3f
00000020: b0ef 603f d9a7 303f b3bb 9abf ea24 493f
00000030: 494c 6a3f 8f14 8cbf 86ca ccbf 18bd debf
00000040: 372a 45be acbd 873e db4f bebe a56d e6be
00000050: 6429 cc3d 8664 cabe 3420 3a3e 5247 c83d
00000060: 5bc6 153e 53ce 90be 3956 4c3e 8488 8b3e
00000070: f13a 0d3f 247e c9bc 055a 1d3e eafe b13d
00000080: 3b16 633f cdfd adbf 89d0 b13e 5f26 423f
00000090: 4a2a 5a3f 16fa 353f b958 6a3e 5cef b5bf
000000a0: 6aa6 b8bf b64f 47be 14cc 3e3f a979 afbf
000000b0: eb54 95bf 9a42 9e3e 3318 143e 40d1 0b3f

layer2.bias f4 [3]
0.40059286 0.1257369 -0.20132191
00000000: 821a cd3e 2dc1 003e 5527 4ebe
